…
guments:\n    layers_to_fix (List): Should be: \n    \n        - A list of integers. Layers indicated by the integers will be fixed.\n        - A list of lists of integers. Each sub-list defines the layers to be fixed for each species, in the order of `self.species_order`. \nExamples:\n\n    .. code-block:: python\n    \n        import mlatom as ml\n        >>> ani = ml.models.ani(model_file='ANI.pt')\n        model loade from ANI.pt\n        >>> ani.model # show model summary\n        Sequential(\n        (0): AEVComputer()\n        (1): ANIModel(\n            (C): Sequential(\n            (0): Linear(in_features=240, out_features=160, bias=True)\n            (1): CELU(alpha=0.1)\n            (2): Linear(in_features=160, out_features=128, bias=True)\n            (3): CELU(alpha=0.1)\n            (4): Linear(in_features=128, out_features=96, bias=True)\n            (5): CELU(alpha=0.1)\n            (6): Linear(in_features=96, out_features=1, bias=True)\n            )\n            (H): Sequential(\n            (0): Linear(in_features=240, out_features=160, bias=True)\n            (1): CELU(alpha=0.1)\n            (2): Linear(in_features=160, out_features=128, bias=True)\n            (3): CELU(alpha=0.1)\n            (4): Linear(in_features=128, out_features=96, bias=True)\n            (5): CELU(alpha=0.1)\n            (6): Linear(in_features=96, out_features=1, bias=True)\n            )\n            (O): Sequential(\n            (0): Linear(in_features=240, out_features=160, bias=True)\n            (1): CELU(alpha=0.1)\n            (2): Linear(in_features=160, out_features=128, bias=True)\n            (3): CELU(alpha=0.1)\n            (4): Linear(in_features=128, out_features=96, bias=True)\n            (5): CELU(alpha=0.1)\n            (6): Linear(in_features=96, out_features=1, bias=True)\n            )\n          )\n        )\n        >>> parameters = dict(a.model.named_parameters())\n        >>> {key: parameters[key].requires_grad for key in parameters} # show the trainability of parameters\n        {'1.C.0.weight': True, '1.C.0.bias': True, '1.C.2.weight': True, '1.C.2.bias': True, '1.C.4.weight': True, '1.C.4.bias': True, '1.C.6.weight
…
