…
n\n\n\n# Usage\n\n## Token Mixing\n\nWe provide \"token mixing\" linear attention layers in `fla.layers` for you to use.\nYou can replace the standard multihead attention layer in your model with other linear attention layers.\nExample usage is as follows:\n```py\n>>> import torch\n>>> from fla.layers import MultiScaleRetention\n>>> batch_size, num_heads, seq_len, hidden_size = 32, 4, 2048, 1024\n>>> device, dtype = 'cuda:0', torch.bfloat16\n>>> retnet = MultiScaleRetention(hidden_size=hidden_size, num_heads=num_heads).to(device=device, dtype=dtype)\n>>> retnet\nMultiScaleRetention(\n  (q_proj): Linear(in_features=1024, out_features=1024, bias=False)\n  (k_proj): Linear(in_features=1024, out_features=1024, bias=False)\n  (v_proj): Linear(in_features=1024, out_features=2048, bias=False)\n  (g_proj): Linear(in_features=1024, out_features=2048, bias=False)\n  (o_proj): Linear(in_features=2048, out_features=1024, bias=False)\n  (g_norm_swish_gate): FusedRMSNormSwishGate(512, eps=1e-05)\n  (rotary): RotaryEmbedding()\n)\n>>> x = torch.randn(batch_size, seq_len, hidden_size).to(device=device, dtype=dtype)\n>>> y, *_ = retnet(x)\n>>> y.shape\ntorch.Size([32, 2048, 1024])\n```\n\nWe provide the implementations of models that are compatible with \ud83e\udd17 Transformers lib
…
o\": 4,\n  \"hidden_size\": 2048,\n  \"initializer_range\": 0.02,\n  \"intermediate_size\": null,\n  \"max_position_embeddings\": 2048,\n  \"model_type\": \"gla\",\n  \"norm_eps\": 1e-06,\n  \"num_heads\": 4,\n  \"num_hidden_layers\": 24,\n  \"num_kv_heads\": null,\n  \"tie_word_embeddings\": false,\n  \"transformers_version\": \"4.45.0\",\n  \"use_cache\": true,\n  \"use_gk\": true,\n  \"use_gv\": false,\n  \"use_output_gate\": true,\n  \"use_short_conv\": false,\n  \"vocab_size\": 32000\n}\n\n>>> AutoModelForCausalLM.from_config(config)\nGLAForCausalLM(\n  (model): GLAModel(\n    (embeddings): Embedding(32000, 2048)\n    (layers): ModuleList(\n      (0-23): 24 x GLABlock(\n        (attn_norm): RMSNorm(2048, eps=1e-06)\n        (attn): GatedLinearAttention(\n          (q_proj): Linear(in_features=2048, out_features=1024, bias=False)\n          (k_proj): Linear(in_features=2048, out_features=1024, bias=False)\n          (v_proj): Linear(in_features=2048, out_features=2048, bias=False)\n          (g_proj): Linear(in_features=2048, out_features=2048, bias=False)\n          (gk_proj): Sequential(\n            (0): Linear(in_features=2048, out_features=16, bias=False)\n            (1): Linear(in_features=16, out_features=1024, bias=True)\n          )\n          (o_proj): Linear(in_features=2048, out_features=2048, bias=False)\n          (g_norm_swish_gate): FusedRMSNormSwishGate(512, eps=1e-06)\n        )\n        (mlp_norm): RMSNorm(2048, eps=1e-06)\n        (mlp): GLAMLP(\n          (gate_proj): Linear(in_features=2048, out_features=11264, bias=False)\n          (down_proj): Linear(in_features=5632, out_features=2048, bias=False)\n          (act_fn): SiLU()\n        )\n      )\n    )\n    (norm): RMSNorm(2048, eps=1e-06)\n  )\n  (lm_head): Linear(in_features=2048, out_features=32000, bias=False)\n)\n\n```\n\n## Fused Modules\n\nWe offer a collection of fused modules in `fla.modules` to facilitate faster training:\n\n* [`Rotary Embedding`](fla/modules/rotary.py): rotary positional embeddings as adopted by the Llama architecture, a.k.a., Transformer++.\n* [`Norm Layers`](fla/modules/layernorm.py): \n  * `RMSNorm`, `LayerNorm` and `GroupNorm`
…
 2,\n  \"pad_token_id\": 0,\n  \"rescale_prenorm_residual\": false,\n  \"residual_in_fp32\": false,\n  \"state_size\": 16,\n  \"tie_word_embeddings\": false,\n  \"time_step_floor\": 0.0001,\n  \"time_step_init_scheme\": \"random\",\n  \"time_step_max\": 0.1,\n  \"time_step_min\": 0.001,\n  \"time_step_rank\": 144,\n  \"time_step_scale\": 1.0,\n  \"transformers_version\": \"4.45.0\",\n  \"use_bias\": false,\n  \"use_cache\": true,\n  \"use_conv_bias\": true,\n  \"vocab_size\": 32000\n}\n\n>>> AutoModelForCausalLM.from_config(config)\nSambaForCausalLM(\n  (backbone): SambaModel(\n    (embeddings): Embedding(32000, 2304)\n    (layers): ModuleList(\n      (0): SambaBlock(\n        (mixer_norm): RMSNorm(2304, eps=1e-05)\n        (mixer): MambaMixer(\n          (conv1d): Conv1d(4608, 4608, kernel_size=(4,), stride=(1,), padding=(3,), groups=4608)\n          (act): SiLU()\n          (in_proj): Linear(in_features=2304, out_features=9216, bias=False)\n          (x_proj): Linear(in_features=4608, out_features=176, bias=False)\n          (dt_proj): Linear(in_features=144, out_features=4608, bias=True)\n          (out_proj): Linear(in_features=4608, out_features=2304, bias=False)\n        )\n        (mlp_norm): RMSNorm(2304, eps=1e-05)\n        (mlp): SambaMLP(\n          (gate_proj): Linear(in_features=2304, out_features=12288, bias=False)\n          (down_proj): Linear(in_features=6144, out_features=2304, bias=False)\n          (act_fn): SiLU()\n        )\n      )\n      (1): SambaBlock(\n        (mixer_norm): RMSNorm(2304, eps=1e-05)\n        (mixer): Attention(\n          (q_proj): Linear(in_features=2304, out_features=2304, bias=False)\n          (k_proj): Linear(in_features=2304, out_features=2304, bias=False)\n          (v_proj): Linear(in_features=2304, out_features=2304, bias=False)\n          (o_proj): Linear(in_features=2304, out_features=2304, bias=False)\n          (rotary): RotaryEmbedding()\n        )\n        (mlp_norm): RMSNorm(2304, eps=1e-05)\n        (mlp): SambaMLP(\n          (gate_proj): Linear(in_features=2304, out_features=12288, bias=False)\n          (down_proj): Linear(in_features=6144, out_features=2304, bias=False)\n          (act_fn): SiLU()\n        )\n      )\n    )\n    (norm_f): RMSNorm(2304, eps=1e-05)\n  )\n  (lm_head): Linear(in_features=2304, out_features=32000, bias=False)\n)\n```\n\nDuring inference, you **DO NOT** need to revise anything for generation!\nThe model will produce output as-is, without any need for additional configurations or modifications.\n\n# Evaluations\n\nThe [lm-evaluation-harness](https://github.com/EleutherAI/lm-evaluation-harness) library allows you to easily perform (zero-shot) model evaluat
…
