…
s, specify with the reuse syntax in graph spec: <module>~<suffix>.\n# E.g. stereoscopic model with `left` and `right` inputs over a shared `conv` module: `conv~left` and `conv~right`.\nmodel = torcharc.build(torcharc.SPEC_DIR / \"basic\" / \"stereo_conv_reuse.yaml\")\n\n# Run the model and check the output shape\nleft_image = right_image = torch.randn(4, 3, 32, 32)\nleft, right = model(left_image=left_image, right_image=right_image)\nassert left.shape == (4, 10)\nassert right.shape == (4, 10)\n\nmodel\n```\n\n<details><summary>model</summary>\n\n```\nGraphModule(\n  (conv): Sequential(\n    (0): Conv2d(3, 32, kernel_size=(3, 3), stride=(1, 1))\n    (1): ReLU()\n    (2): Conv2d(32, 64, kernel_size=(3, 3), stride=(1, 1))\n    (3): ReLU()\n    (4): MaxPool2d(kernel_size=2, stride=2, padding=0, dilation=1, ceil_mode=False)\n    (5): Dropout(p=0.25, inplace=False)\n    (6): Flatten(start_dim=1, end_dim=-1)\n  )\n  (left_mlp): Sequential(\n    (0): Linear(in_features=12544, out_features=256, bias=True)\n    (1): ReLU()\n    (2): Linear(in_features=256, out_features=10, bias=True)\n    (3): ReLU()\n  )\n  (right_mlp): Sequential(\n    (0): Linear(in_features=12544, out_features=256, bias=True)\n    (1): ReLU()\n    (2): Linear(in_features=256, out_features=10, bias=True)\n    (3): ReLU()\n  )\n)\n```\n\n![](images/stereo_conv_reuse.png)\n\n</details>\n\n---\n\n### Example: transformer\n\n<details><summary>spec file</summary>\n\nFile: [torcharc/example/spec/transformer/transformer.yaml](torcharc/example/spec/transformer/transformer.yaml)\n\n```yaml\nmodules:\n  src_embed:\n    LazyLinear:\n      out_features: &embed_dim 
…
\n      out_features: 10\n\ngraph:\n  input: [src_x, tgt_x]\n  modules:\n    src_embed: [src_x]\n    tgt_embed: [tgt_x]\n    transformer:\n      src: src_embed\n      tgt: tgt_embed\n    mlp: [transformer]\n  output: mlp\n```\n\n</details>\n\n```python\nmodel = torcharc.build(torcharc.SPEC_DIR / \"transformer\" / \"transformer.yaml\")\n\n# Run the model and check the output shape\nsrc_x = torch.randn(4, 10, 64)\ntgt_x = torch.randn(4, 20, 64)\ny = model(src_x=src_x, tgt_x=tgt_x)\nassert y.shape == (4, 20, 10)\n\nmodel\n```\n\n<details><summary>model</summary>\n\n```\nGraphModule(\n  (src_embed): Linear(in_features=64, out_features=128, bias=True)\n  (tgt_embed): Linear(in_features=64, out_features=128, bias=True)\n  (transformer): Transformer(\n    (encoder): TransformerEncoder(\n      (layers): ModuleList(\n        (0-1): 2 x TransformerEncoderLayer(\n          (self_attn): MultiheadAttention(\n            (out_proj): NonDynamicallyQuantizableLinear(in_features=128, out_features=128, bias=True)\n          )\n          (linear1): Linear(in_features=128, out_features=1024, bias=True)\n          (dropout): Dropout(p=0.1, inplace=False)\n          (linear2): Linear(in_features=1024, out_features=128, bias=True)\n          (norm1): LayerNorm((128,), eps=1e-05, elementwise_affine=True)\n          (norm2): LayerNorm((128,), eps=1e-05, elementwise_affine=True)\n          (dropout1): Dropout(p=0.1, inplace=False)\n          (dropout2): Dropout(p=0.1, inplace=False)\n        )\n      )\n      (norm): LayerNorm((128,), eps=1e-05, elementwise_affine=True)\n    )\n    (decoder): TransformerDecoder(\n      (layers): ModuleList(\n        (0-1): 2 x TransformerDecoderLayer(\n          (self_attn): MultiheadAttention(\n...\n      (norm): LayerNorm((128,), eps=1e-05, elementwise_affine=True)\n    )\n  )\n  (mlp): Linear(in_features=128, out_features=10, bias=True)\n)\n```\n\n</details>\n\n---\n\n### Example: Get modules: Attention\n\n> See more in [torcharc/module/get.py](torcharc/module/get.py)\n\n<details><summary>spec file</summary>\n\nFile: [torcharc/example/spec/transformer/attn.yaml](torcharc/example/spec/transformer/attn.yaml)\n\n```yaml\nmodules:\n  src_embed:\n    LazyLinear:\n      out_features: &embed_
…
ge]\n  output: classifier\n```\n\n</details>\n\n```python\n# For more complex models, merge modules can be used to combine multiple inputs into a single output.\nmodel = torcharc.build(torcharc.SPEC_DIR / \"advanced\" / \"dlrm_sum.yaml\")\n\n# Run the model and check the output shape\ndense = torch.randn(4, 256)\ncat_0 = torch.randint(0, 1000, (4,))\ncat_1 = torch.randint(0, 1000, (4,))\ncat_2 = torch.randint(0, 1000, (4,))\ny = model(dense, cat_0, cat_1, cat_2)\nassert y.shape == (4, 1)\n\nmodel\n```\n\n<details><summary>model</summary>\n\n```\nGraphModule(\n  (dense_mlp): Sequential(\n    (0): Linear(in_features=256, out_features=512, bias=True)\n    (1): ReLU()\n    (2): Linear(in_features=512, out_features=256, bias=True)\n    (3): ReLU()\n    (4): Linear(in_features=256, out_features=128, bias=True)\n    (5): ReLU()\n  )\n  (cat_embed_0): Embedding(1000, 128)\n  (cat_embed_1): Embedding(1000, 128)\n  (cat_embed_2): Embedding(1000, 128)\n  (merge): MergeSum()\n  (classifier): Sequential(\n    (0): Linear(in_features=128, out_features=256, bias=True)\n    (1): ReLU()\n    (2): Linear(in_features=256, out_features=256, bias=True)\n    (3): ReLU()\n    (4): Linear(in_features=256, out_features=1, bias=True)\n    (5): Sigmoid()\n  )\n)\n```\n\n![](images/dlrm.png)\n\n</details>\n\n---\n\n### Example: Merge modules: FiLM\n\n<details><summary>spec file</summary>\n\nFile: [torcharc/example/spec/merge/film.yaml](torcharc/example/spec/merge/film.yaml)\n\n```yaml\n# FiLM https://distill.pub/2018/feature-wise-transformations/\nmodules:\n  feat:\n    LazyLinear:\n  
…
_1:\n      feature: feat\n      conditioner: cond\n    tail: [merge_0_1]\n  output: tail\n```\n\n</details>\n\n```python\n# Custom MergeFiLM module for Feature-wise Linear Modulation https://distill.pub/2018/feature-wise-transformations/\nmodel = torcharc.build(torcharc.SPEC_DIR / \"advanced\" / \"film_image_state.yaml\")\n\n# Run the model and check the output shape\nimage = torch.randn(4, 3, 32, 32)\nstate = torch.randn(4, 4)\ny = model(image=image, state=state)\nassert y.shape == (4, 10)\n\nmodel\n```\n\n<details><summary>model</summary>\n\n```\nGraphModule(\n  (conv_0): Sequential(\n    (0): Conv2d(3, 64, kernel_size=(3, 3), stride=(1, 1))\n    (1): ReLU()\n  )\n  (gyro): Linear(in_features=4, out_features=10, bias=True)\n  (film_0): MergeFiLM(\n    (gamma): Linear(in_features=10, out_features=64, bias=True)\n    (beta): Linear(in_features=10, out_features=64, bias=True)\n  )\n  (conv_1): Sequential(\n    (0): Conv2d(64, 32, kernel_size=(3, 3), stride=(1, 1))\n    (1): ReLU()\n    (2): MaxPool2d(kernel_size=2, stride=2, padding=0, dilation=1, ceil_mode=False)\n    (3): Dropout(p=0.25, inplace=False)\n  )\n  (film_1): MergeFiLM(\n    (gamma): Linear(in_features=10, out_features=32, bias=True)\n    (beta): Linear(in_features=10, out_features=32, bias=True)\n  )\n  (flatten): Sequential(\n    (0): Flatten(start_dim=1, end_dim=-1)\n    (1): Linear(in_features=6272, out_features=256, bias=True)\n  )\n  (classifier): Sequential(\n...\n    (1): ReLU()\n    (2): Linear(in_features=64, out_features=10, bias=True)\n    (3): LogSoftmax(dim=1)\n  )\n)\n```\n\n![](images/film.png)\n\n</details>\n\n---\n\n### Example: Fork modules: Chunk\n\n> See more in [torcharc/module/fork.py](torcharc/module/fork.py)\n\n<details><summary>spec file</summary>\n\nFile: [torcharc/example/spec/fork/chunk.yaml](torcharc/example/spec/fork/chunk.yaml)\n\n```yaml\nmodules:\n  head:\n    Li
…
bed: [text]\n    text_tfmr:\n      src: text_token_embed\n      tgt: text_token_embed\n    text_embed: [text_tfmr]\n  output: text_embed\n```\n\n</details>\n\n```python\n# Sometimes we need to reduce the input tensor, e.g. pooling token embeddings into a single sentence embedding\nmodel = torcharc.build(torcharc.SPEC_DIR / \"fn\" / \"reduce_mean.yaml\")\n\n# Run the model and check the output shape\ntext = torch.randint(0, 1000, (4, 10))\ny = model(text)\nassert y.shape == (4, 128)  # reduced embedding\n\nmodel\n```\n\n<details><summary>model</summary>\n\n```\nGraphModule(\n  (text_token_embed): Embedding(10000, 128)\n  (text_tfmr): Transformer(\n    (encoder): TransformerEncoder(\n      (layers): ModuleList(\n        (0-1): 2 x TransformerEncoderLayer(\n          (self_attn): MultiheadAttention(\n            (out_proj): NonDynamicallyQuantizableLinear(in_features=128, out_features=128, bias=True)\n          )\n          (linear1): Linear(in_features=128, out_features=2048, bias=True)\n          (dropout): Dropout(p=0.1, inplace=False)\n          (linear2): Linear(in_features=2048, out_features=128, bias=True)\n          (norm1): LayerNorm((128,), eps=1e-05, elementwise_affine=True)\n          (norm2): LayerNorm((128,), eps=1e-05, elementwise_affine=True)\n          (dropout1): Dropout(p=0.1, inplace=False)\n          (dropout2): Dropout(p=0.1, inplace=False)\n        )\n      )\n      (norm): LayerNorm((128,), eps=1e-05, elementwise_affine=True)\n    )\n    (decoder): TransformerDecoder(\n      (layers): ModuleList(\n        (0-1): 2 x TransformerDecoderLayer(\n          (self_attn): MultiheadAttention(\n            (out_proj): NonDynamicallyQuantizableLinear(in_features=128, out_features=128, bias=True)\n...\n      (norm): LayerNorm((128,), eps=1e-05, elementwise_affine=True)\n    )\n  )\n  (text_embed): Reduce()\n)\n```\n\n</details>\n\n---\n\n### Example: general functional modules: TorchFn\n\n> See more in [torcharc/module/fn.py](torcharc/module/fn.py)\n\n<details><summary>spec file</summary>\n\nFile: [torcharc/example/spec/fn/fn_topk.yaml](torcharc/example/spec/fn/fn_topk.yaml)\n\n```yaml\nmodules:\n  mlp:\n    Sequential
…
