…
n\n```\nconda install -c conda-forge torchinfo\n```\n\n# How To Use\n\n```python\nfrom torchinfo import summary\n\nmodel = ConvNet()\nbatch_size = 16\nsummary(model, input_size=(batch_size, 1, 28, 28))\n```\n\n```\n================================================================================================================\nLayer (type:depth-idx)          Input Shape          Output Shape         Param #            Mult-Adds\n================================================================================================================\nSingleInputNet                  [7, 1, 28, 28]       [7, 10]              --                 --\n\u251c\u2500Conv2d: 1-1                   [7, 1, 28, 28]       [7, 10, 24, 24]      260                1,048,320\n\u251c\u2500Conv2d: 1-2                   [7, 10, 12, 12]      [7, 20, 8, 8]        5,020              2,248,960\n\u251c\u2500Dropout2d: 1-3                [7, 20, 8, 8]        [7, 20, 8, 8]        --                 --\n\u251c\u2500Linear: 1-4                   [7, 320]             [7, 50]              16,050             112,350\n\u251c\u2500Linear: 1-5                   [7, 50]              [7, 10]              510                3,570\n================================================================================================================\nTotal params: 21,840\nTrainable params: 21,840\nNon-trainable params: 0\nTotal mult-adds (M): 3.41\n================================================================================================================\nInput size (MB): 0.02\nForward/backward pass size
…
5.80\n========================================================================================================================\n\n```\n\n<!-- lstm.out -->\n\n## ResNet\n\n```python\nimport torchvision\n\nmodel = torchvision.models.resnet152()\nsummary(model, (1, 3, 224, 224), depth=3)\n```\n\n```\n==========================================================================================\nLayer (type:depth-idx)                   Output Shape              Param #\n==========================================================================================\nResNet                                   [1, 1000]                 --\n\u251c\u2500Conv2d: 1-1                            [1, 64, 112, 112]         9,408\n\u251c\u2500BatchNorm2d: 1-2                       [1, 64, 112, 112]         128\n\u251c\u2500ReLU: 1-3                              [1, 64, 112, 112]         --\n\u251c\u2500MaxPool2d: 1-4                         [1, 64, 56, 56]           --\n\u251c\u2500Sequential: 1-5                        [1, 256, 56, 56]          --\n\u2502    \u2514\u2500Bottleneck: 2-1                   [1, 256, 56, 56]          --\n\u2502    \u2502    \u2514\u2500Conv2d: 3-1                  [1, 64, 56, 56]           4,096\n\u2502    \u2502    \u2514\u2500BatchNorm2d: 3-2             [1, 64, 56, 56]           128\n\u2502    \u2502    \u2514\u2500ReLU: 3-3                    [1, 64, 56, 56]           --\n\u2502    \u2502    \u2514\u2500Conv2d: 3-4                  [1, 64, 56, 56]           36,864\n\u2502    \u2502    \u2514\u2500BatchNorm2d: 3-5             [1, 64, 56, 56]           128\n\u2502    \u2502    \u2514\u2500ReLU: 3-6                    [1, 64, 56, 56]           --\n\u2502    \u2502    \u2514\u2500Conv2d: 3-7                  [1, 256, 56, 56]          16,384\n\u2502    \u2502    \u2514\u2500BatchNorm2d: 3-8             [1, 256, 56, 56]          512\n\u2502    \u2502    \u2514\u2500Sequential: 3-9              [1, 256, 56, 56]          16,896\n\u2502    \u2502    \u2514\u2500ReLU: 3-10                   [1, 256, 56, 56]          --\n\u2502    \u2514\u2500Bottleneck: 2-2                   [1, 256, 56, 56]          --\n\n  ...\n  ...\n  ...\n\n\u251c\u2500AdaptiveAvgPool2d: 1-9                 [1, 2048, 1, 1]           --\n\u251c\u2500Linear: 1-10                           [1, 1000]                 2,049,000\n==========================================================================================\nTotal params: 60,192,808\nTrainable params: 60,192,808\nNon-trainable params: 0\nTotal mult-adds (G): 11.51\n==========================================================================================\nInput size (MB): 0.60\nForward/backward pass size (MB): 360.87\nParams size (MB): 240.77\nEstimated Total
…
       out = self._sequential(x)\n        out = self._between(out)\n        for l in self._sequential:\n            out = l(out)\n\n        out = self._sequential(x)\n        for l in self._sequential:\n            out = l(out)\n        return out\n\nsummary(ContainerModule(), (1, 5))\n```\n\n```\n==========================================================================================\nLayer (type:depth-idx)                   Output Shape              Param #\n==========================================================================================\nContainerModule                          [1, 5]                    --\n\u251c\u2500ModuleList: 1-1                        --                        --\n\u2502    \u2514\u2500Linear: 2-1                       [1, 5]                    30\n\u2502    \u2514\u2500ContainerChildModule: 2-2         [1, 5]                    --\n\u2502    \u2502    \u2514\u2500Sequential: 3-1              [1, 5]                    --\n\u2502    \u2502    \u2502    \u2514\u2500Linear: 4-1             [1, 5]                    30\n\u2502    \u2502    \u2502    \u2514\u2500Linear: 4-2             [1, 5]                    30\n\u2502    \u2502    \u2514\u2500Linear: 3-2                  [1, 5]                    30\n\u2502    \u2502    \u2514\u2500Sequential: 3-3              --                        (recursive)\n\u2502    \u2502    \u2502    \u2514\u2500Linear: 4-3             [1, 5]                    (recursive)\n\u2502    \u2502    \u2502    \u2514\u2500Linear: 4-4             [1, 5]                    (recursive)\n\u2502    \u2502    \u2514\u2500Sequential: 3-4              [1, 5]                    (recursive)\n\u2502    \u2502    \u2502    \u2514\u2500Linear: 4-5             [1, 5]                    (recursive)\n\u2502    \u2502    \u2502    \u2514\u2500Linear: 4-6             [1, 5]                    (recursive)\n\u2502    \u2502    \u2502    \u2514\u2500Linear: 4-7             [1, 5]                    (recursive)\n\u2502    \u2502    \u2502    \u2514\u2500Linear: 4-8             [1, 5]                    (recursive)\n\u2502    \u2514\u2500Linear: 2-3                       [1, 5]                    30\n==========================================================================================\nTotal params: 150\nTrainable params: 150\nNon-trainable params: 0\nTotal mult-adds (M): 0.00\n==========================================================================================\nInput size (MB): 0.00\nForward/backward pass size (MB): 0.00\nParams size (MB): 0.00\nEstimated Total Size (MB): 0.00\n=
…
