…
ult = ptr + x` for some x parametrized by the arguments\n\n## Examples:\n\nGiven the following pointer:\n\n%ptr : llvm.ptr<llvm.struct<(i32, i32, llvm.array<2xi32>)>>\n\nThe following indices point to the following things:\n\n[0]      -> The first element of the pointer, so a pointer to the struct:\n            llvm.ptr<llvm.struct<(i32, i32, llvm.array<2xi32>)>>\n\n[1]      -> The *next* element of the pointer, useful if the\n            pointer points to a list of structs.\n            Equivalent to (ptr + 1), so points to\n            llvm.ptr<llvm.struct<(i32, i32, llvm.array<2xi32>)>>\n\n[0,0]    -> The first member of the first struct:\n            llvm.ptr<i32>\n\n[1,0]    -> The first member of the *second* struct pointed to by ptr\n            (can result in out-of-bounds access if the ptr only points to a single struct)\n            llvm.ptr<i32>\n\n[0,2]    -> The third member of the first struct.\n            llvm.ptr<llvm.array<2,i32>>\n\n[0,2,0]  -> The first entry of the array that is the third member of\n            the first struct pointed to by our ptr.\n            llvm.ptr<i32>\n\n[0,0,1]  -> Invalid! The first element of the first struct has no \"sub-elements\"!\n\n\nHere is an example of invalid GEP operation parameters:\n\nGiven a different pointer to the example above:\n\n%ptr : llvm.ptr<llvm.struct<(llvm.ptr<i32>, i32)>>\n\nNote the two pointers, one to the struct, one in the struct.\n\nWe can do math on the first pointer:\n\n[0]      -> First struct\n            llvm.ptr<llvm.struct<(llvm.ptr<i32>, i32)>>\n\n[0,1]    -> Second member of first struct\n            llvm.ptr<i32>\n\n[0,0]    -> First member of the first struct\n            llvm.ptr<llvm.ptr<i32>>\n\n[0,0,3]  -> Invalid! In order to find the fourth element in the pointer\n            it would need to be dereferenced! GEP can't do that!\n\nExpressed in \"C\", this would equate to:\n\n# address of first struct\n(ptr + 0)\n\n# address of first field of first struct\n&((ptr + 0)->elm0)\n           ^^^^^^\n           Even though it looks like it, we are not actually\n           dereferencing ptr here.\n\n# a
…
